data.pth (torch, 9887 bytes, 6 tensors)

l1.weight f4 [8, 144]
0.86207926 -0.4969568 -0.49652305 -0.3250975 0.9240374 0.62620246 -0.49579445 0.08467024
-0.51117206 -0.19819623 -0.26530707 0.41879785 -0.23256095 -0.21862443 0.62402785 0.5759469
-0.49580538 0.41644353 -0.4967279 0.75441784 -0.49601623 1.2702667 -0.1229671 -0.2740493
0.33583018 0.6269299 -0.14063762 -0.2513746 0.51240957 1.0331722 1.1177372 1.1485758
0.23914398 -0.048552275 0.27908662 -0.1750326 0.43287307 0.975228 -0.24517049 0.85407865
0.26246643 -0.4962845 -0.17184108 -0.30721372 -0.49618807 0.31906414 -0.20335013 -0.4964664
0.00686559 0.46751326 -0.35124043 0.29632327 -0.19157666 -0.9437323 0.39234525 0.8373434
0.7827983 0.7617937 0.7192444 0.41831258 0.07531069 0.77791345 0.8251823 0.5518354
0.37568375 0.38760045 0.8949687 0.9272552 0.3161451 -0.22198196 -0.22205405 -0.22122793
0.80485475 -0.13599984 0.33242384 0.44792596 0.9237939 -0.49615315 -0.4966847 -0.22378205
0.5056873 0.56154686 0.8398906 0.8533497 -0.4970397 0.3407715 0.4020688 0.73392725
0.33052978 -0.49615678 0.0043269875 -0.28658852 -0.009076333 0.79026335 0.7914174 -0.49668336
-0.0009254226 -0.62481064 0.7936193 0.49447492 1.0079421 0.32065672 -0.49612266 -0.3038572
-0.24967176 0.722359 -0.1725457 0.77140224 0.8516386 0.60045147 -0.5540078 -0.003554509
0.46212396 -0.26975068 0.4481838 0.4190304 -0.4960279 0.85531384 0.40591988 -0.49677607
-0.31499684 -0.49718773 0.96492684 0.9863668 -0.24895707 -0.31109977 0.6228744 -0.30800265
0.18052231 0.2665977 -0.27849287 -0.25900114 -0.7392529 0.5351433 0.5031412 -0.29244694
-0.1938724 -0.29843473 0.903409 -0.5002154 0.7185994 0.7402366 -0.27458775 0.82005125
-0.66446245 1.153353 1.1664362 1.4233571 -0.47926077 -0.62444395 0.9598068 0.49054012
1.2761679 0.94911927 1.0816691 0.6966568 1.1151459 1.1198945 0.8898886 0.91898507
1.1881293 0.080832444 1.0753372 -0.11213765 1.0807319 -0.66425633 -0.69607466 0.13739705
0.9985172 0.86898094 0.49970147 1.165899 0.13468492 -0.7169694 -0.6813253 -0.6651947
0.51805323 0.4081939 0.10225635 -0.5798424 0.6957796 0.5304001 0.30263615 0.32597348
1.0020835 0.98182654 1.0589527 0.6640108 0.98335624 -0.32936436 0.30175903 1.0604423
0.24816076 -0.63889676 0.2259512 -0.30391276 -0.8341978 1.1290131 0.07333448 -0.23452708
-0.84277105 -0.8751993 -0.8524965 0.81889325 0.21015756 -0.9863696 0.004583688 0.30801538
0.47190154 0.58243847 -0.79907364 -0.5575429 0.71695316 0.635688 1.0515994 0.9931413
0.7831317 0.53439033 -0.68233633 0.034292754 -0.46932617 0.960436 1.0812666 1.3664187
0.85596865 0.8483742 -0.9175266 -0.8645326 1.105048 -0.310957 0.11543775 -0.8443118
-0.3314079 1.1481509 0.47649255 0.16006467 -0.5618107 0.74560475 0.8732402 1.1402262
0.8106142 1.0678896 0.7346392 0.03672783 0.68021536 -0.32505444 0.9509143 1.0285072
1.0440353 -0.87570906 0.85993874 -0.9549729 -0.8699997 -0.8319871 1.0409906 -0.744877
00000000: 3ab1 5c3f 1f71 febe 4538 febe 2e73 a6be
00000010: b78d 6c3f ce4e 203f c5d8 fdbe 9767 ad3d
00000020: 2cdc 02bf f4f3 4abe 54d6 87be ac6c d63e
00000030: 7524 6ebe 15df 5fbe 4ac0 1f3f 4271 133f
00000040: 34da fdbe 1638 d53e 1f53 febe 8721 413f
00000050: d7f5 fdbe 1998 a23f 2dd6 fbbd 3150 8cbe
00000060: eff1 ab3e 7a7e 203f 4f03 10be 2cb4 80be
00000070: 462d 033f fd3e 843f 0312 8f3f 8804 933f
00000080: 29e2 743e c0de 46bd 71e4 8e3e bf3b 33be
00000090: 8aa1 dd3e 8ba8 793f f90d 7bbe e6a4 5a3f
000000a0: 0062 863e 0119 febe 1cf7 2fbe 1e4b 9dbe
000000b0: 5d0c febe 605c a33e 043b 50be d830 febe
000000c0: bef8 e03b e65d ef3e c9d5 b3be afb7 973e
000000d0: ac2c 44be 7198 71bf 7ae1 c83e 235c 563f
000000e0: 7865 483f e904 433f 6720 383f 112d d63e
000000f0: 7e3c 9a3d 5625 473f 263f 533f 1645 0d3f
00000100: 9f59 c03e 9173 c63e ab1c 653f 9960 6d3f
00000110: c5dd a13e 3d4f 63be 2362 63be 9389 62be
00000120: f60a 4e3f 8b43 0bbe 7533 aa3e 8d56 e53e
00000130: c27d 6c3f c907 febe 754d febe 1f27 65be
00000140: b974 013f 89c1 0f3f 1203 573f 2075 5a3f
00000150: fd7b febe 9a79 ae3e f6db cd3e a8e2 3b3f
00000160: 333b a93e 4308 febe 67c9 8d3b bbbb 92be
00000170: e6b4 14bc b34e 4a3f 559a 4a3f 484d febe
00000180: 0f98 72ba 97f3 1fbf a22a 4b3f d12b fd3e
00000190: 3f04 813f 1e2d a43e ca03 febe 2c93 9bbe
000001a0: f4a9 7fbe 85ec 383f d2af 30be 9e7a 453f
000001b0: fd04 5a3f 30b7 193f 75d3 0dbf c4f2 68bb
000001c0: 839b ec3e c31c 8abe 5978 e53e 278b d63e
000001d0: 5ef7 fdbe d9f5 5a3f bbd4 cf3e 6f59 febe
000001e0: 4447 a1be 648f febe 7205 773f 8982 7c3f
000001f0: 9aee 7ebe 7848 9fbe b274 1f3f 86b2 9dbe
00000200: d7da 383e 7e7f 883e 9e96 8ebe cc9b 84be
00000210: ae3f 3dbf 27ff 083f ddcd 003f 9bbb 95be
00000220: 7d86 46be 70cc 98be d045 673f 1e0e 00bf
00000230: 21f6 373f 2580 3d3f c496 8cbe e1ee 513f
00000240: 361a 2abf 12a1 933f c84d 953f 9130 b63f
00000250: ab61 f5be 8fdb 1fbf e6b5 753f 1328 fb3e
00000260: 7859 a33f 7bf9 723f 2274 8a3f 1a58 323f
00000270: 1abd 8e3f b458 8f3f bdcf 633f 9b42 6b3f
00000280: 9f14 983f 7b8b a53d a6a4 893f 6da8 e5bd
00000290: 6c55 8a3f b40c 2abf f331 32bf d0b1 0c3e
000002a0: d39e 7f3f 8975 5e3f dfd8 ff3e 2e3c 953f
000002b0: d8ea 093e 4e8b 37bf 566b 2ebf 334a 2abf
000002c0: 239f 043f cafe d03e c76b d13d 8d70 14bf
000002d0: 9d1e 323f 4dc8 073f 20f3 9a3e ffe5 a63e
000002e0: 4644 803f fc58 7b3f c38b 873f 9dfc 293f
000002f0: 3cbd 7b3f 72a2 a8be 2980 9a3e 93bc 873f
00000300: db1d 7e3e bd8e 23bf c05f 673e 749a 9bbe
00000310: fd8d 55bf 8083 903f 6330 963d de27 70be
00000320: d8bf 57bf 100d 60bf 363d 5abf fda2 513f
00000330: 8b33 573e b882 7cbf c332 963b 31b4 9d3e
00000340: 149d f13e b01a 153f 1790 4cbf 22bb 0ebf
00000350: 3e8a 373f 73bc 223f cf9a 863f 823e 7e3f
00000360: 527b 483f cecd 083f 98ad 2ebf 8f76 0c3d
00000370: 854b f0be 22df 753f f266 8a3f cfe6 ae3f
00000380: c320 5b3f 0d2f 593f 06e3 6abf 0252 5dbf
00000390: 3672 8d3f c235 9fbe a16a ec3d d124 58bf
000003a0: 4cae a9be 9cf6 923f d5f6 f33e fee7 233e
000003b0: d3d2 0fbf f4df 3e3f ab8c 5f3f eff2 913f
000003c0: 6a84 4f3f 9bb0 883f 5111 3c3f ec6f 163d
000003d0: 9822 2e3f 896d a6be 1f6f 733f 20a6 833f
000003e0: f3a2 853f 782e 60bf f224 5c3f 1b79 74bf
000003f0: 4db8 5ebf 1bfd 54bf 2e3f 853f 42b0 3ebf

l1.bias f4 [8]
0.4956785 1.3376545 0.6877017 0.46561113 0.7248283 0.4497742 0.73143065 0.69251144
00000000: 93c9 fd3e 4338 ab3f 380d 303f 9564 ee3e
00000010: 598e 393f ce48 e63e 0a3f 3b3f 6e48 313f

l2.weight f4 [8, 8]
-0.79261696 0.060563218 0.55849904 0.7156554 0.508173 -0.64970106 -0.19938046 0.23739055
-0.71721387 0.85475624 1.8729529 0.74641824 -0.013866665 -0.8316159 0.46841392 0.12958881
-0.2697838 -0.13524918 0.30594066 -0.32858008 0.010669581 -0.06033103 -0.04936935 -0.1309389
-0.889052 1.8148974 -1.7306772 1.3886501 -0.16234575 -0.5937889 1.8653246 2.2123995
1.2618983 -0.8733194 0.8537998 2.0820634 2.0213091 2.6408195 1.1343397 1.3368464
-0.36071396 1.6765254 -0.21143039 -1.3792485 2.0919876 -0.31169075 1.5301988 -1.7536734
-0.08260545 -0.27309003 -0.19667469 0.27976224 -0.22751412 -0.070231855 0.065113425 -0.1390685
2.2987623 0.8200996 2.7150326 -1.2153794 -0.40349415 1.0084378 0.09915221 -0.34746337
00000000: f2e8 4abf 2311 783d cbf9 0e3f 3135 373f
00000010: a017 023f cf52 26bf 642a 4cbe 8216 733e
00000020: 549b 37bf 4ed1 5a3f ecbc ef3f 4415 3f3f
00000030: 0231 63bc c8e4 54bf f3d3 ef3e eeb2 043e
00000040: 1a21 8abe c37e 0abe 41a4 9c3e a63b a8be
00000050: 77cf 2e3c ac1d 77bd 8437 4abd d914 06be
00000060: e998 63bf 8f4e e83f d586 ddbf 49bf b13f
00000070: f73d 26be 8d02 18bf f5c2 ee3f f497 0d40
00000080: e285 a13f dc91 5fbf a092 5a3f 8740 0540
00000090: 215d 0140 3003 2940 0b32 913f c81d ab3f
000000a0: 80af b8be 6298 d63f 3581 58be 378b b0bf
000000b0: 20e3 0540 ee95 9fbe 8edd c33f 5f78 e0bf
000000c0: 0c2d a9bd 75d2 8bbe 1765 49be ff3c 8f3e
000000d0: 76f9 68be b8d5 8fbd 305a 853d f967 0ebe
000000e0: ec1e 1340 0cf2 513f 18c3 2d40 8d91 9bbf
000000f0: c996 cebe 7d14 813f 5010 cb3d b8e6 b1be

l2.bias f4 [8]
-0.24145941 -0.59397984 -0.29950383 1.1868904 -0.8747315 0.9662993 -0.25391656 0.98259705
00000000: 2341 77be 100f 18bf 9158 99be 06ec 973f
00000010: 67ee 5fbf 645f 773f 5a01 82be 7b8b 7b3f

l3.weight f4 [18, 8]
-0.7178409 -1.8866205 -0.3090546 -3.091395 0.15041742 -3.5083365 -0.06581697 1.0725303
-1.1265234 0.73791325 0.25845194 -3.5463955 -1.9953796 -0.0989205 -0.20095187 1.076884
-0.15849984 0.61898535 0.074243106 1.287414 -1.3658643 -1.8367723 -0.03874871 -2.8642066
0.8769549 0.36055455 -0.017067298 -0.39057592 -0.29133344 0.084945396 0.033459246 -1.1890848
-0.66073555 -1.2722429 0.03718268 0.18683548 -0.36047253 0.17307526 -0.16714196 -0.3317672
0.498537 0.9516179 -0.2617067 0.001381477 -0.23456126 -4.5480123 0.3113489 -0.51181376
-0.9264088 -2.4640336 0.04281755 -3.3630836 0.36026967 0.5902791 -0.26555794 -0.0034536284
-0.05751164 -0.2262835 -0.083166875 0.23401673 -1.1921742 0.7204258 -0.15184152 -1.0518297
-1.5735391 -2.907887 0.18835732 0.9311842 -2.2842844 -0.8768742 -0.03262171 0.7850571
-0.70339 -1.1461157 -0.0140246665 0.15420492 0.45631602 -1.1224768 0.26624998 -0.95260715
-0.43318945 0.12906839 0.27368456 -1.5540898 0.6188204 -3.8366547 -0.07944703 -0.025456423
-1.0806038 -3.2792168 -0.15797518 -0.6325519 0.1782789 0.14052594 -0.21958297 -0.12635437
-0.7257695 -0.40137577 0.24729337 0.5068211 0.08899284 -0.52682686 -0.29307404 -1.8980476
-1.5035386 -2.0518575 -3.1699925e-05 0.519392 -4.2855153 1.287832 0.15234914 -0.09013232
-1.2896401 -0.17727214 0.13887472 -1.4098214 -0.24557734 -0.81520844 0.21430716 0.7133848
-0.50105256 0.6452187 -0.3071296 -1.3300762 -0.61302936 0.44450197 -0.20465772 0.012153508
0.34929085 1.0896429 -0.14476031 0.31217736 -3.6345575 -0.1108174 0.2867655 0.15384796
0.5957239 -3.5781882 0.18189494 0.5295536 0.76688486 -3.95407 -0.11521953 -3.7413049
00000000: 6cc4 37bf c87c f1bf 683c 9ebe 6ad9 45c0
00000010: 0607 1a3e 9688 60c0 0ccb 86bd ac48 893f
00000020: eb31 90bf e2e7 3c3f d053 843e 25f8 62c0
00000030: 9968 ffbf d596 cabd 54c6 4dbe 56d7 893f
00000040: c84d 22be d375 1e3f c50c 983d fbc9 a43f
00000050: a4d4 aebf 5b1b ebbf f8b6 1ebd 294f 37c0
00000060: 1e80 603f 9b9a b83e b8d0 8bbc 91f9 c7be
00000070: a829 95be daf7 ad3d 900c 093d ee33 98bf
00000080: f725 29bf dbd8 a2bf de4c 183d cd51 3f3e
00000090: db8f b8be a43a 313e 4327 2bbe 64dd a9be
000000a0: 3e40 ff3e 3b9d 733f 6cfe 85be ad12 b53a
000000b0: d430 70be 5189 91c0 1f69 9f3e 3a06 03bf
000000c0: 2129 6dbf bab2 1dc0 7561 2f3d c33c 57c0
000000d0: 4475 b83e 881c 173f 36f7 87be 4556 62bb
000000e0: 5391 6bbd ddb6 67be 6553 aabd 15a2 6f3e
000000f0: 2a99 98bf d36d 383f 587c 1bbe 5ba2 86bf
00000100: bb69 c9bf d21a 3ac0 bee0 403e 1662 6e3f
00000110: b731 12c0 d47a 60bf 589e 05bd 81f9 483f
00000120: 5e11 34bf ebb3 92bf b7c7 65bc e5e7 1d3e
00000130: 41a2 e93e 52ad 8fbf eb51 883e 10de 73bf
00000140: 02cb ddbe 812a 043e 6220 8c3e 6aec c6bf
00000150: 046b 1e3f c08b 75c0 20b5 a2bd fd89 d0bc
00000160: 3a51 8abf b0de 51c0 3fc4 21be ecee 21bf
00000170: be8e 363e 08e6 0f3e 5cda 60be 0a63 01be
00000180: 08cc 39bf 2081 cdbe 793a 7d3e 07bf 013f
00000190: e141 b63d 20de 06bf cd0d 96be 39f3 f2bf
000001a0: f473 c0bf a251 03c0 89f5 04b8 e0f6 043f
000001b0: f122 89c0 aed7 a43f 6a01 1c3e 4b97 b8bd
000001c0: ed12 a5bf d486 35be 2d35 0e3e 0775 b4bf
000001d0: a078 7bbe 80b1 50bf 5673 5b3e 63a0 363f
000001e0: fb44 00bf 0d2d 253f 1740 9dbe f03f aabf
000001f0: 7eef 1cbf c395 e33e cb91 51be 821f 473c
00000200: 40d6 b23e 6b79 8b3f 0c3c 14be b6d5 9f3e
00000210: 979c 68c0 3cf4 e2bd edd2 923e 528a 1d3e
00000220: 5d81 183f 0901 65c0 ab42 3a3e d390 073f
00000230: 9152 443f 7c0f 7dc0 38f8 ebbd 8a71 6fc0

l3.bias f4 [18]
0.5976595 0.520304 0.56807417 -1.0555501 -0.3236251 -0.30505416 0.08406273 -0.39653292
1.2574741 -0.17374635 -0.3011671 0.21745831 -0.71546537 0.70975566 0.005405237 -0.8501706
-0.7636218 0.8338096
00000000: 3700 193f a532 053f 4f6d 113f 441c 87bf
00000010: 30b2 a5be 0f30 9cbe 1529 ac3d 5d06 cbbe
00000020: e9f4 a03f 90ea 31be 9332 9abe 64ad 5e3e
00000030: bd28 37bf 8cb2 353f 6a1e b13b c8a4 59bf
00000040: b87c 43bf 8c74 553f
